simple-NN-chatbot/chatbot_model.pth (torch, 64541 bytes, 6 tensors)

fc1.weight f4 [128, 52]
-0.053805366 0.21883522 -0.13050269 0.06553763 0.09767142 0.11157103 -0.07547378 -0.07550415
0.121377066 0.11053617 0.030420534 -0.093340404 0.017563256 0.054588076 -0.0047476846 -0.103724
-0.014962522 0.21488325 0.047824748 0.20278208 -0.11488417 -0.04429711 0.0627159 -0.081516966
-0.12050247 -0.16825354 0.05831684 -0.12890303 -0.041997723 -0.063165806 0.07794432 0.02708292
0.031531062 0.06366141 -0.008175432 0.00032544136 -0.06023904 -0.13314052 -0.1238821 0.0772408
-0.04977652 -0.05842936 -0.09799777 0.01696436 -0.06578532 0.008017495 0.10426885 -0.027246214
0.057826485 0.0712474 0.048582017 -0.12847795 -0.15536459 0.012960836 0.026026977 0.12549247
-0.0020634383 -0.040827118 -0.037140913 0.15610248 -0.14584814 0.02571421 -0.017175846 0.17913876
0.2188553 -0.13402772 -0.1216337 0.0735385 -0.06483516 -0.10710314 -0.019142171 -0.12970677
-0.09521592 0.057554003 -0.020315085 -0.022790775 0.047109738 -0.12518577 0.19069304 -0.11717821
0.003549118 0.22254188 -0.09034276 0.010988771 0.09867518 -0.021435842 0.15260144 0.084496036
-0.0007802408 0.18108569 -0.120805144 0.08639294 0.028975394 0.03828746 0.03275241 -0.060178228
-0.06543181 0.04821822 -0.0490783 -0.04374601 -0.041679673 -0.067684405 0.049400475 -0.056277998
-0.03114574 0.10014242 -0.021156691 -0.013652071 0.08501503 -0.12340839 0.06563674 -0.12061903
-0.055953573 0.23515226 -0.12147125 0.07172504 -0.13820818 0.023280341 -0.13089667 0.049582943
-0.091164686 0.16416651 -0.07994527 0.20698662 -0.09868544 -0.07460428 -0.08729698 -0.033853006
-0.120783694 -0.029827584 0.12445387 -0.09782188 -0.04757732 -0.094979785 -0.074340925 -0.056484133
-0.076910615 -0.13357997 0.023261387 -0.0279443 -0.034696974 -0.018963328 0.061423082 0.12613098
0.00159531 -0.037599884 -0.09765807 -0.10491546 -0.031468865 0.026917294 -0.11783797 -0.0750718
-0.105267465 0.03228517 0.1924332 0.08238578 -0.033081286 -0.052158408 0.09946812 -0.009670468
0.0039485293 -0.07290454 0.16044521 -0.040116597 0.0058252914 -0.08109345 0.17092614 0.03484412
0.034313835 0.031328984 -0.13452928 -0.049429975 0.0449859 -0.06876537 0.04488884 0.008299221
0.096326694 0.21135296 0.18628259 0.13701977 -0.08598247 0.052450173 -0.027056761 0.028710099
-0.06475401 -0.07719813 -0.07616977 -0.11882359 0.07901021 0.024551567 -0.023334911 0.016894024
0.19474185 -0.09661411 -0.165396 0.09989597 0.008500428 -0.04405293 0.027768021 0.18954559
0.10939583 0.14484936 -0.10614075 0.030452842 0.043995045 0.091656774 0.040494107 0.034597628
-0.098911084 -0.024700508 0.12940088 0.21420601 -0.04037029 -0.02803926 -0.111046016 0.13791929
0.021690488 0.24884583 -0.06975983 0.17163679 0.06530964 -0.10291085 -0.044266418 0.10100336
-0.044006962 0.14934997 -0.13885197 -0.12584229 -0.11123623 -0.13735436 -0.14726774 -0.08863094
0.23358515 -0.049750898 0.16818345 -0.06006684 0.20253503 0.029282227 0.1451401 0.20295078
0.16055043 -0.046654277 0.079129845 0.12381032 0.09463922 0.067628935 0.020407677 0.03022322
0.23718242 0.0639452 0.05189872 -0.093605585 0.018655075 -0.009126216 -0.0075425496 -0.15770122
00000000: 0463 5cbd 5716 603e 7fa2 05be 9838 863d
00000010: f407 c83d 5a7f e43d ff91 9abd eba1 9abd
00000020: 8a94 f83d ca60 e23d 7c34 f93c 4129 bfbd
00000030: d1e0 8f3c bf97 5f3d 7792 9bbb 406d d4bd
00000040: 5e25 75bc 5b0a 5c3e e2e3 433d 1ba6 4f3e
00000050: 6448 ebbd e370 35bd 3271 803d 5ef2 a6bd
00000060: 00ca f6bd a84a 2cbe a4dd 6e3d 28ff 03be
00000070: ce05 2cbd 135d 81bd 46a1 9f3d 00dd dd3c
00000080: b726 013d ea60 823d 3ff2 05bc 00a0 aa39
00000090: 36bd 76bd fd55 08be e6b5 fdbd 6d30 9e3d
000000a0: 77e2 4bbd a053 6fbd 0eb3 c8bd d7f8 8a3c
000000b0: 74ba 86bd d05b 033c e88a d53d 7433 dfbc
000000c0: 77db 6c3d 28ea 913d f0fd 463d b98f 03be
000000d0: e517 1fbe b059 543c 8736 d53c 1981 003e
000000e0: c03a 07bb 563a 27bd 1221 18bd 54d9 1f3e
000000f0: 3759 15be 9ba6 d23c 5cb4 8cbc 2770 373e
00000100: 9b1b 603e 903e 09be 171b f9bd 5a9b 963d
00000110: 4cc8 84bd e458 dbbd 0bd0 9cbc dad1 04be
00000120: 9000 c3bd bfbd 6b3d d26b a6bc b8b3 babc
00000130: 24f6 403d b330 00be 0945 433e 21fb efbd
00000140: 5298 683b 05e2 633e a005 b9bd 3f0a 343c
00000150: 3616 ca3d 389a afbc 8d43 1c3e 420c ad3d
00000160: 1389 4cba 876e 393e b068 f7bd c8ee b03d
00000170: ce5d ed3c 50d3 1c3d 6427 063d 727d 76bd
00000180: 1d01 86bd 7880 453d 5406 49bd 042f 33bd
00000190: 4eb8 2abd 1f9e 8abd 2758 4a3d c283 66bd
000001a0: 5a25 ffbc 7817 cd3d cc50 adbc f0ac 5fbc
000001b0: 5c1c ae3d 8abd fcbd 8e6c 863d 1c07 f7bd
000001c0: 932f 65bd c1cb 703e ebc5 f8bd 94e4 923d
000001d0: 7286 0dbe 6ab6 be3c c709 06be 7c17 4b3d
000001e0: 8db4 babd 441b 283e 59ba a3bd 4df4 533e
000001f0: 981b cabd 21ca 98bd c2c8 b2bd 73a9 0abd
00000200: 715d f7bd fa58 f4bc ace1 fe3d d656 c8bd
00000210: 70e0 42bd c384 c2bd 0e40 98bd e85b 67bd
00000220: 5083 9dbd 30c9 08be aa8e be3c 72eb e4bc
00000230: 6a1e 0ebd fb58 9bbc c596 7b3d 7b28 013e
00000240: b919 d13a 5602 1abd f400 c8bd ebdd d6bd
00000250: 7fe5 00bd a881 dc3c 0955 f1bd 3ebf 99bd
00000260: 7896 d7bd 743d 043d 350d 453e e0b9 a83d
00000270: 3e80 07bd 0ea4 55bd f1b5 cb3d e270 1ebc
00000280: aa62 813b fa4e 95bd c04b 243e 4d51 24bd
00000290: 16e2 be3b 5314 a6bd 4307 2f3e b5b8 0e3d
000002a0: aa8c 0c3d d252 003d 0bc2 09be 1677 4abd
000002b0: 2343 383d dcd4 8cbd 5cdd 373d 75f9 073c
000002c0: ee46 c53d e96c 583e ddc0 3e3e e94e 0c3e
000002d0: 9417 b0bd fed5 563d 24a6 ddbc 7131 eb3c
000002e0: c09d 84bd 0e1a 9ebd e5fe 9bbd c859 f3bd
000002f0: 1bd0 a13d 5e20 c93c db28 bfbc 5665 8a3c
00000300: 686a 473e 9edd c5bd 925d 29be 4296 cc3d
00000310: 6145 0b3c d870 34bd c379 e33c 3d18 423e
00000320: ec0a e03d 6453 143e 5260 d9bd 3d78 f93c
00000330: 2634 343d 8cb6 bb3d 26dd 253d 3eb6 0d3d
00000340: e591 cabd b858 cabc aa81 043e d258 5b3e
00000350: 515b 25bd 97b2 e5bc 186c e3bd b73a 0d3e
00000360: 40b0 b13c 71d1 7e3e 3ede 8ebd 8ec1 2f3e
00000370: 0fc1 853d ecc2 d2bd b450 35bd d9da ce3d
00000380: a540 34bd 33ef 183e 362f 0ebe cddc 00be
00000390: d2cf e3bd 9fa6 0cbe 5bcd 16be 2384 b5bd
000003a0: f230 6f3e 99c7 4bbd 4838 2c3e a608 76bd
000003b0: 5865 4f3e 48e1 ef3c 9b9f 143e 54d2 4f3e
000003c0: 5567 243e 8e18 3fbd d40e a23d 4490 fd3d
000003d0: 35d2 c13d 0a81 8a3d 002e a73c b096 f73c
000003e0: f3df 723e b3f5 823d c193 543d 49b4 bfbd
000003f0: 87d2 983c 2086 15bc 7e27 f7bb 6e7c 21be

fc1.bias f4 [128]
0.039102565 0.06427684 0.07343793 0.15215644 0.13675344 0.00077371986 0.19510621 0.04920902
0.15505481 0.1056871 0.16707756 0.088066794 0.015302571 0.012031302 0.19670996 0.06526584
0.038076304 0.20608433 0.08960414 0.09316742 0.0090462845 0.19620267 0.082263775 -0.03965023
0.059126094 -0.016034132 0.0012659617 0.061126053 0.025860509 0.08148613 0.12299915 0.05591839
0.161235 0.09440781 0.14061509 0.2608155 0.0793665 0.13520807 0.13719535 -0.012700637
0.14200084 0.16777714 0.05169795 -0.037970446 0.024061227 0.045425355 0.03395662 0.246754
0.010096467 0.036492135 0.0539898 -0.0019430483 0.054892853 0.0064357864 0.11635976 0.16131513
0.16953364 0.038749535 -0.004520597 0.2392395 0.081620954 -0.038076308 0.16914202 0.12190778
-0.021284016 -0.037898697 -0.0050388663 0.12875614 0.22599657 0.19522388 0.015192204 0.05803435
0.15122569 0.019816453 0.21674131 0.23600611 -0.035667296 0.0604198 0.13740799 0.019448819
0.26271132 0.16730349 0.13497931 0.04104746 0.19278169 0.24668093 -0.040662408 0.19643418
0.051647194 0.248574 -0.018223014 0.06160177 -0.04787819 0.019214379 0.2165524 0.14452763
0.08003351 0.09672758 0.24628976 0.18303314 0.092893384 0.19861582 0.04879074 0.11533009
0.029524935 -0.06385773 0.15633792 -0.010169473 0.10846849 0.10747439 0.023003716 -0.148603
-0.11251796 0.016621962 0.08978575 0.15788822 0.07994087 0.16923913 0.10803904 0.22185431
0.068580255 0.12370288 -0.0053498996 0.22177693 0.019279815 0.032663286 0.07544184 -0.0059633204
00000000: 032a 203d 93a3 833d a066 963d e6ce 1b3e
00000010: 1809 0c3e 76d3 4a3a ecc9 473e 668f 493d
00000020: b0c6 1e3e 7a72 d83d 6116 2b3e 5d5c b43d
00000030: a2b7 7a3c f01e 453c 566e 493e 19aa 853d
00000040: e6f5 1b3d c507 533e 6082 b73d 8fce be3d
00000050: de36 143c 5ae9 483e e979 a83d 4868 22bd
00000060: 342e 723d 035a 83bc a0ee a53a 505f 7a3d
00000070: 6bd9 d33c 33e2 a63d fae6 fb3d af0a 653d
00000080: ca1a 253e e258 c13d 67fd 0f3e 9c89 853e
00000090: e78a a23d fc73 0a3e f07c 0c3e 5516 50bc
000000a0: ab68 113e c5cd 2b3e 3bc1 533d e686 1bbd
000000b0: 0d1c c53c f00f 3a3d 1916 0b3d 15ad 7c3e
000000c0: a76b 253c c778 153d 6924 5d3d e2ad feba
000000d0: 54d7 603d 4ae3 d23b 074e ee3d cb2f 253e
000000e0: 3a9a 2d3e d5b7 1e3d 8421 94bb 33fb 743e
000000f0: e328 a73d e7f5 1bbd 9133 2d3e c9aa f93d
00000100: d15b aebc aa3b 1bbd 131d a5bb a6d8 033e
00000110: a56b 673e c5e8 473e b9e8 783c 6db5 6d3d
00000120: e8da 1a3e 1d56 a23c 6ff1 5d3e 96ab 713e
00000130: df17 12bd c17a 773d aeb4 0c3e 2153 9f3c
00000140: 1982 863e 9b51 2b3e 0438 0a3e 6221 283d
00000150: 9068 453e ed99 7c3e a08d 26bd 0b26 493e
00000160: 028c 533d 2f8a 7e3e 6e48 95bc 2352 7c3d
00000170: ec1b 44bd 7967 9d3c eabf 5d3e 0dff 133e
00000180: 9ce8 a33d 1c19 c63d 6233 7c3e 0a6d 3b3e
00000190: e33e be3d f261 4b3e cdd8 473d 2f32 ec3d
000001a0: 47de f13c d7c7 82bd 0c17 203e dc9d 26bc
000001b0: ba24 de3d 881b dc3d 4a72 bc3c 632b 18be
000001c0: d16f e6bd c82a 883c 97e1 b73d 73ad 213e
000001d0: 0ab8 a33d 064d 2d3e 9243 dd3d c72d 633e
000001e0: ce73 8c3d f057 fd3d 364e afbb 7e19 633e
000001f0: b4f0 9d3c f0c9 053d 4081 9a3d f567 c3bb

fc2.weight f4 [64, 128]
0.037399292 0.044978123 0.23621075 -0.06726193 0.25283027 -0.08740956 0.11335399 0.035047747
-0.025326757 -0.016426677 0.17418614 0.013300807 -0.007710217 -0.075294 -0.08170224 -0.058574993
0.06848478 0.13424863 0.031947844 -0.015937096 0.17050496 0.060100235 0.04633875 0.0015998733
0.1325498 0.028577382 0.041155253 -0.08698729 -0.07668378 0.02588939 0.058260333 -0.047734883
-0.03372155 0.11679522 0.0033843368 0.08497113 -0.09180634 0.074374095 0.19462013 0.0671222
0.061084986 -0.07676801 -0.037744533 0.012372803 -0.08377067 -0.04225625 0.12943093 0.03686462
0.0776643 -0.034828622 0.12243084 0.06420644 -0.052344553 0.0627441 0.010397554 0.050423868
0.006348827 0.18700899 -0.058158644 -0.07588092 0.022419252 0.16807297 -0.016789027 0.18026224
0.050468504 -0.06288773 -0.038475174 0.033580106 0.018991847 -0.07338253 0.101446286 -0.15195277
0.0092061255 -0.048557803 -0.050440356 0.1081552 0.049963936 0.095206685 -0.026308903 -0.044850696
-0.038473766 -0.06488144 -0.039623566 0.16056058 -0.025174646 0.008764665 0.040381797 -0.057634152
-0.025664328 -0.01605493 0.07573949 -0.09891045 -0.039923295 -0.032743394 0.18319657 0.0065508634
0.011197274 -0.035408475 0.12246025 0.06306147 -0.03277759 0.07894219 0.18630773 0.01806759
0.08782091 -0.09366155 0.19558537 0.11399644 -0.08604453 0.023703555 0.24748953 0.009933293
-0.063831516 0.1609461 -0.012240783 -0.013418914 -0.10371763 -0.07967562 0.0994376 -0.013462668
-0.09417413 0.18167578 0.16367589 0.029648606 -0.046659954 -0.053336103 0.13366115 -0.04467495
0.052230798 0.046119172 0.091319434 -0.060393877 0.16616572 0.05728806 0.015335872 0.0423021
-0.079720974 -0.13537638 0.11124615 0.09942499 -0.1661407 -0.12579241 -0.033389922 -0.05382029
0.04435685 0.07093978 0.07180353 0.041123327 0.14028814 0.028851332 0.16178977 -0.04220444
0.040620483 0.06373196 0.11534992 -0.058054276 0.03550692 0.073046915 0.028548973 0.08149711
-0.06671369 0.25196308 -0.0038397843 0.073197655 -0.09733101 -0.10734419 0.14953141 0.071882576
0.01759486 -0.11126597 0.041453574 0.03128577 -0.15955435 -0.039264888 -0.0029293601 0.100573085
-0.047334805 -0.0058713043 -0.084764674 0.14820074 0.05857381 0.15732214 0.06066572 0.1146401
-0.06897075 0.11007406 -0.059121512 0.0019289954 -0.10544085 0.13445379 -0.035511237 0.15497524
0.02615784 0.028849307 -0.07013145 -0.063620426 0.108853355 -0.007108639 -0.11206765 -0.06424172
0.056426056 -0.050436866 0.033978257 0.015874183 0.020080313 0.024544412 -0.0012838674 0.041910723
0.079822086 0.04749811 -0.1333248 0.06864281 0.032658044 0.008970558 0.154882 -0.06659093
0.062215388 -0.089156754 0.15846315 -0.10586586 0.0037879602 -0.13324355 0.15044837 0.01395116
0.117986515 -0.18462726 0.19355346 0.10577498 -0.09322716 0.15500945 -0.036144007 -0.120556876
0.19748673 -0.08295508 0.08196249 0.038429737 -0.089603424 -0.048117343 0.102704994 -0.045662433
0.04543564 0.22631133 0.15092884 -0.05724271 -0.1802374 -0.068530716 -0.022978399 -0.024994882
0.0045063766 0.088073984 0.073276125 0.088370904 -0.049390342 -0.18016437 -0.013865246 -0.07325859
00000000: 0030 193d fb3a 383d 3be1 713e 9fc0 89bd
00000010: f872 813e c903 b3bd 2326 e83d 3a8e 0f3d
00000020: 0f7a cfbc 3d91 86bc da5d 323e a1eb 593c
00000030: fda5 fcbb be33 9abd 8153 a7bd 55ec 6fbd
00000040: c041 8c3d 7978 093e bedb 023d 838e 82bc
00000050: da98 2e3e aa2b 763d b3cd 3d3d d7b2 d13a
00000060: 23bb 073e 1d1b ea3c 6992 283d 6426 b2bd
00000070: 630c 9dbd fc15 d43c 63a2 6e3d a785 43bd
00000080: 9c1f 0abd 5532 ef3d c0cb 5d3b 5805 ae3d
00000090: f604 bcbd 7251 983d 804a 473e 5d77 893d
000000a0: 4034 7a3d 8c38 9dbd 039a 1abd 4cb7 4a3c
000000b0: f58f abbd e414 2dbd 8b89 043e 5bff 163d
000000c0: 760e 9f3d 75a8 0ebd 05bd fa3d aa7e 833d
000000d0: 3e67 56bd fb7f 803d 815a 2a3c 4289 4e3d
000000e0: d209 d03b 497f 3f3e c237 6ebd 7567 9bbd
000000f0: 94a8 b73c 521b 2c3e 2489 89bc aa96 383e
00000100: 10b8 4e3d 48cb 80bd 2598 1dbd 4b8b 093d
00000110: ca94 9b3c 9449 96bd 12c3 cf3d 8299 1bbe
00000120: 4ad5 163c 8ce4 46bd 8c9a 4ebd 7980 dd3d
00000130: fca6 4c3d b9fb c23d c585 d7bc 5db5 37bd
00000140: ab96 1dbd 8fe0 84bd 524c 22bd fe69 243e
00000150: 0f3b cebc ab99 0f3c 6267 253d ca11 6cbd
00000160: ff3d d2bc a185 83bc 4e1d 9b3d 9091 cabd
00000170: 9c86 23bd f01d 06bd e297 3b3e a0a8 d63b
00000180: c574 373c 7a08 11bd 71cc fa3d 5f26 813d
00000190: cb41 06bd 71ac a13d 74c7 3e3e 7c02 943c
000001a0: 73db b33d a0d1 bfbd 8847 483e f776 e93d
000001b0: 1d38 b0bd f52d c23c e56d 7d3e 40bf 223c
000001c0: 19ba 82bd 0ecf 243e 918d 48bc 01db 5bbc
000001d0: e969 d4bd f92c a3bd f1a5 cb3d 8692 5cbc
000001e0: 5ede c0bd 3709 3a3e a79a 273e a2e1 f23c
000001f0: 821e 3fbd f576 5abd 78de 083e 15fd 36bd
00000200: f6ef 553d 75e7 3c3d af05 bb3d 925f 77bd
00000210: 5927 2a3e e3a6 6a3d 4f43 7b3c f844 2d3d
00000220: c044 a3bd 1ba0 0abe 06d5 e33d 549f cb3d
00000230: ca20 2abe bacf 00be dfc3 08bd aa72 5cbd
00000240: 87af 353d e048 913d bb0d 933d ef70 283d
00000250: b2a7 0f3e a159 ec3c 38ac 253e 90de 2cbd
00000260: aa61 263d e785 823d 943c ec3d 52ca 6dbd
00000270: b46f 113d 9f99 953d 89df e93c f5e7 a63d
00000280: 30a1 88bd 4e01 813e e4a4 7bbb a7e8 953d
00000290: 7b55 c7bd 45d7 dbbd c31e 193e 2c37 933d
000002a0: 1923 903c 6adf e3bd 39cb 293d 8225 003d
000002b0: 3762 23be 38d4 20bd 82fa 3fbb 43f9 cd3d
000002c0: 24e2 41bd 1264 c0bb 1a99 adbd efc1 173e
000002d0: 17eb 6f3d 0e19 213e 9e7c 783d 6ec8 ea3d
000002e0: 8940 8dbd 826e e13d 6629 72bd 58d6 fc3a
000002f0: 5ff1 d7bd 41ae 093e 3b74 11bd d4b1 1e3e
00000300: f748 d63c 6255 ec3c 14a1 8fbd 6d4b 82bd
00000310: 82ee de3d 96ef e8bb b983 e5bd 2a91 83bd
00000320: 021f 673d e396 4ebd c92c 0b3d 930a 823c
00000330: 787f a43c 5d11 c93c 7147 a8ba 94aa 2b3d
00000340: c379 a33d 618d 423d 4c86 08be 9a94 8c3d
00000350: 71c4 053d 3ff9 123c 6399 1e3e d360 88bd
00000360: 90d5 7e3d d197 b6bd 2a44 223e 33d0 d8bd
00000370: 6d3f 783b ff70 08be 230f 1a3e 6893 643c
00000380: eaa2 f13d ee0e 3dbe e132 463e 8da0 d83d
00000390: e2ed bebd ccba 1e3e bd0b 14bd 86e6 f6bd
000003a0: f639 4a3e 5ae4 a9bd f3db a73d 8068 1d3d
000003b0: 0082 b7bd b116 45bd ff56 d23d 8808 3bbd
000003c0: b91a 3a3d 28be 673e 178d 1a3e 5577 6abd
000003d0: 2790 38be d559 8cbd 323d bcbc 11c2 ccbc
000003e0: 3aaa 933b 2260 b43d cb11 963d cefb b43d
000003f0: 874d 4abd 027d 38be 0f2b 63bc 9a08 96bd

fc2.bias f4 [64]
0.018718751 0.011029509 0.046717845 0.031147014 0.018408248 0.033819564 0.040485315 -0.04190677
0.033052724 0.036883965 0.036088813 -0.016940007 -0.030708676 -0.033076823 0.11588233 0.12445062
0.04045009 0.0038052876 0.075534664 0.119841136 0.031493776 -0.0054881517 0.10129283 0.07705718
0.08500318 0.02988755 0.10076026 -0.0039936183 0.09255312 0.023626534 0.079992235 0.044506874
0.16645806 0.1120599 0.04352502 0.0830799 0.0765108 -0.014247744 0.034246735 -0.04575604
0.06300951 0.058045868 0.029547941 0.039644033 0.10700352 0.087476954 0.017302623 -0.03221354
-0.0021815475 0.04918978 0.024279306 0.050245214 0.0013513259 -0.058316067 0.030055854 0.15195261
0.028189909 0.014589825 0.04323309 0.018646935 -0.00062485324 0.041593082 0.12818106 0.08908035
00000000: 1158 993c 1db5 343c 365b 3f3d 0628 ff3c
00000010: e5cc 963c 6286 0a3d eed3 253d 6fa6 2bbd
00000020: 4b62 073d a413 173d ddd1 133d c5c5 8abc
00000030: c390 fbbc 907b 07bd b753 ed3d f7df fe3d
00000040: feae 253d 2262 793b ebb1 9a3d 456f f53d
00000050: 9eff 003d f4d5 b3bb 9e72 cf3d 28d0 9d3d
00000060: 2616 ae3d bcd6 f43c 655b ce3d e6dc 82bb
00000070: 7d8c bd3d 6f8c c13c f8d2 a33d d74c 363d
00000080: fb73 2a3e a97f e53d 4b47 323d cb25 aa3d
00000090: b2b1 9c3d 5f6f 69bc 4e46 0c3d af6a 3bbd
000000a0: 210b 813d 81c1 6d3d 860e f23c c861 223d
000000b0: a924 db3d 1e27 b33d 3bbe 8d3c 58f2 03bd
000000c0: 4bf8 0ebb 397b 493d 65e5 c63c edcd 4d3d
000000d0: f91e b13a d4dc 6ebd b237 f63c 7799 1b3e
000000e0: 86ee e63c 290a 6f3c 2e15 313d 75c1 983c
000000f0: 31cd 23ba 825d 2a3d e541 033e c26f b63d

fc3.weight f4 [5, 64]
-0.23456754 -0.21237423 0.23186657 -0.15547884 -0.09923778 0.115463875 -0.22488657 -0.20869489
-0.3099914 -0.08180486 0.18155727 -0.28845996 -0.14087033 0.1815943 0.07066804 0.19868211
-0.14960504 0.2331437 -0.17236522 0.022203991 0.276923 -0.27547216 0.07338572 0.15784313
0.2099827 -0.0042214743 0.020274801 -0.22565214 0.07026206 -0.19717428 0.104406126 0.2522459
0.13496165 0.1535627 -0.079377785 0.15795039 0.15301551 0.02854759 -0.10480103 -0.1475698
-0.092995934 0.08812195 -0.25390738 0.15024826 -0.23029579 -0.005448805 0.12737936 -0.23582448
-0.015017476 -0.22436969 -0.0070772856 0.20000148 0.12535942 -0.11866527 0.11032687 0.14988966
-0.19775954 -0.14278857 -0.22390242 -0.058313332 -0.25201362 -0.20836109 -0.048268624 0.10551236
0.1382482 0.13747756 -0.03039796 -0.20806879 -0.09577079 -0.027773043 -0.15501496 -0.14802918
0.019183783 0.21015486 -0.12734894 0.11964757 -0.23988171 -0.33242068 -0.06566947 0.1327627
-0.23184197 -0.26226515 -0.20988163 0.11693489 -0.02189783 0.098211914 0.10175206 -0.15818934
0.13031474 0.14473183 -0.28277797 0.1754537 0.07667732 -0.124913074 0.22412899 -0.063838266
0.010879014 0.12888245 0.19169182 -0.1684477 0.12213149 -0.36457476 -0.25117025 -0.27815098
0.055170342 -0.25358 0.02024975 -0.14917022 0.15698166 0.10680202 -0.29730558 0.07571426
-0.3218482 0.18617146 0.106423035 0.1546856 0.100313514 -0.26434377 0.07802488 0.15565518
0.24980229 -0.19901517 -0.12301366 -0.22996852 0.1581666 0.116461486 0.1790253 0.15420729
0.07271699 -0.12776156 -0.22459179 0.18063772 0.25203562 -0.10461029 -0.016572002 -0.041714903
0.12219175 -0.14776094 0.1401984 0.00572935 0.117544115 0.051652856 -0.27442157 -0.215072
0.077288866 -0.12783444 0.18220627 -0.15550269 -0.1915571 -0.14121124 -0.27780676 -0.2800642
-0.26092228 -0.1475002 0.1434051 0.1706147 0.123097226 0.0716943 -0.2127527 0.016977306
0.15698045 -0.21906675 -0.03291495 -0.087349474 -0.27125323 0.097155504 0.16620542 0.114106834
-0.19761837 0.0134243965 0.19879225 -0.07803908 0.12052228 0.15109907 0.17161025 -0.14293091
0.059355944 0.04667775 -0.050929345 -0.25677928 -0.27795163 0.059405673 0.21440946 -0.21144463
0.12322547 0.1581495 0.1835522 0.15509179 0.10773195 -0.1253691 -0.30983478 -0.30852157
-0.20316169 -0.15725926 -0.15460014 -0.18528229 -0.08241132 0.09309529 0.109294154 0.24334802
-0.03661932 -0.20599037 0.12501565 0.13744451 -0.01863151 0.057194624 0.03732944 -0.29049632
-0.23059964 0.16300364 0.019023929 0.063275896 -0.08332051 -0.31391776 -0.278246 0.13246946
-0.17536297 0.2201264 0.16622233 -0.06937612 -0.30873695 0.12165526 -0.056294236 -0.3180518
-0.17819333 0.041256577 -0.2231833 0.031460904 0.05038897 -0.237413 -0.07009718 0.17616001
0.22149576 0.03128228 -0.15190189 -0.3076244 -0.08088119 -0.2679021 0.18893331 0.16276218
0.13492821 0.098897725 0.10396507 -0.32035887 0.15274821 0.16122957 -0.18363383 -0.02363637
-0.19206794 0.1351439 0.04627872 -0.2152047 -0.16955306 -0.30929342 -0.29961607 0.023889815
00000000: 7932 70be a178 59be 6e6e 6d3e d835 1fbe
00000010: 2d3d cbbd 5378 ec3d aa48 66be 1db4 55be
00000020: 31b7 9ebe 4e89 a7bd 26ea 393e 06b1 93be
00000030: 5040 10be dbf3 393e 68ba 903d 5373 4b3e
00000040: 1032 19be 39bd 6e3e 8280 30be 25e5 b53c
00000050: dac8 8d3e b00a 8dbe 414b 963d a1a1 213e
00000060: b405 573e 4b54 8abb 5717 a63c 5b11 67be
00000070: 8ee5 8f3d 0ee8 49be e1d2 d53d 6026 813e
00000080: 6333 0a3e 8a3f 1d3e d290 a2bd bfbd 213e
00000090: 19b0 1c3e a3dc e93c eca1 d6bd 8a1c 17be
000000a0: a774 bebd 4879 b43d 2600 82be aeda 193e
000000b0: a9d2 6bbe e48b b2bb bc6f 023e f97b 71be
000000c0: dc0b 76bc 2bc1 65be 93e8 e7bb 30cd 4c3e
000000d0: 385e 003e c706 f3bd 0ef3 e13d ad7c 193e
000000e0: 7a81 4abe 2b37 12be ad46 65be f6d9 6ebd
000000f0: ee07 81be 9c5c 55be 52b5 45bd dd16 d83d
00000100: f090 0d3e ebc6 0c3e 2505 f9bc fc0f 55be
00000110: 7a23 c4bd 4b84 e3bc 3ebc 1ebe f694 17be
00000120: 4f27 9d3c d632 573e c367 02be c909 f53d
00000130: 8da3 75be 0b33 aabe b77d 86bd f2f2 073e
00000140: fb67 6dbe 9e47 86be 36eb 56be 8f7b ef3d
00000150: 1463 b3bc 5423 c93d 6263 d03d 63fc 21be
00000160: 3a71 053e 9534 143e 46c8 90be 22aa 333e
00000170: 0009 9d3d 6dd2 ffbd 1282 653e a3bd 82bd
00000180: e43d 323c c3f9 033e dc4a 443e 8e7d 2cbe
00000190: 1320 fa3d 8ba9 babe 6399 80be ce69 8ebe
000001a0: 4cfa 613d 3dd5 81be cee2 a53c 14c0 18be
000001b0: cdbf 203e 04bb da3d 7038 98be 1410 9b3d
000001c0: 4ac9 a4be bba3 3e3e 52f4 d93d e765 1e3e
000001d0: 2c71 cd3d 1158 87be 82cb 9f3d 1264 1f3e
000001e0: 2ccc 7f3e a2ca 4bbe 96ee fbbd de7c 6bbe
000001f0: 6df6 213e 5c83 ee3d 6952 373e 84e8 1d3e
00000200: a5ec 943d edd3 02be 64fb 65be 18f9 383e
00000210: d00a 813e eb3d d6bd 02c2 87bc 3fdd 2abd
00000220: ab3f fa3d a54e 17be 2b90 0f3e 45bd bb3b
00000230: f8ba f03d f291 533d fc80 8cbe d63b 5cbe
00000240: a049 9e3d 08e7 02be 4894 3a3e 193c 1fbe
00000250: 8b27 44be ae99 10be b03c 8ebe 9364 8fbe
00000260: 9b97 85be 4b0a 17be c9d8 123e 9fb5 2e3e
00000270: 661a fc3d 76d4 923d d8db 59be fe13 8b3c
00000280: 7cbf 203e 0953 60be d4d1 06bd 48e4 b2bd
00000290: b4e1 8abe 77f9 c63d c131 2a3e d8b0 e93d
000002a0: 785c 4abe 00f2 5b3c 3290 4b3e f4d2 9fbd
000002b0: 63d4 f63d b7b9 1a3e 99ba 2f3e 7b5c 12be
000002c0: 381f 733d 2b31 3f3d 4a9b 50bd 9378 83be
000002d0: ad4f 8ebe 5d53 733d 278e 5b3e f184 58be
000002e0: a35d fc3d f1f1 213e 1cf5 3b3e 62d0 1e3e
000002f0: 92a2 dc3d c260 00be aaa2 9ebe 8af6 9dbe
00000300: 9e09 50be 9208 21be 804f 1ebe a4ba 3dbe
00000310: 44c7 a8bd bea8 be3d 9dd5 df3d 3930 793e
00000320: 24fe 15bd 24ef 52be 1a04 003e 41be 0c3e
00000330: 1ca1 98bc e944 6a3d c1e6 183d efbb 94be
00000340: 5022 6cbe 6dea 263e 12d8 9b3c cb96 813d
00000350: f2a3 aabd d4b9 a0be 4276 8ebe 13a6 073e
00000360: 5a92 33be d168 613e 3036 2a3e 1115 8ebd
00000370: c512 9ebe 6526 f93d c994 66bd afd7 a2be
00000380: 5078 36be a8fc 283d 2a8a 64be 26dd 003d
00000390: aa64 4e3d 651c 73be 1c8f 8fbd 4a63 343e
000003a0: c9cf 623e d921 003d 2b8c 1bbe f280 9dbe
000003b0: 0aa5 a5bd 772a 89be bc77 413e 21ab 263e
000003c0: 9f2a 0a3e e48a ca3d a3eb d43d 1406 a4be
000003d0: 076a 1c3e 5d19 253e 820a 3cbe 10a1 c1bc
000003e0: 75ad 44be 2a63 0a3e c18e 3d3d 9f5e 5cbe
000003f0: 519f 2dbe b55b 9ebe 4767 99be 93b4 c33c

fc3.bias f4 [5]
-0.03940422 0.14382926 -0.044848774 -0.038384832 0.008900462
00000000: 5266 21bd fa47 133e 59b3 37bd 6a39 1dbd
00000010: 3ed3 113c
